se_chatbot-master/data.pth (torch, 10199 bytes, 6 tensors)

l1.weight f4 [8, 130]
00000000: fc67 eabe 43f4 cebe dfa1 573f ab5f 853e
00000010: 3536 2f3f c37d 2fbe 4a6c eb3d d73b 753f
00000020: 7c0f 1fbd 0932 e53f 7eff 6fbc dab2 1ebf
00000030: fe83 0b40 9090 91bc b70f a9bf c416 8a3e
00000040: 335d ac3e e29a aabe 6d8e 0dbe 2f6b f83d
00000050: 97b5 7e3f 9c72 bf3f 06bd 273f c28b 3e3f
00000060: 0b1a 8d3f f797 013f 35b5 383f 01d8 1d3f
00000070: 5d6e 003f 5802 6fbc dce6 9b3f 0649 883f
00000080: 4141 6c3f d59d 603f 7e76 fc3e 8a5c f93e
00000090: 76cd 1b3f efbd da3f 944c 823f d1f3 8abe
000000a0: 7709 2f3d 6764 85be fde5 763f f457 32bf
000000b0: 7539 31bf 7602 603b 881a 23bf 9759 643e
000000c0: 7e55 a73f 460a 923f 5b9b 843f 76df e5be
000000d0: bbca 16be 9c88 18bf 5f84 59bf c692 6f3f
000000e0: 4fc0 93be 0bc2 513e 13cc 1a3f f514 53be
000000f0: ceb3 66be fcf7 dd3e ded8 cb3f 2521 c2bd
00000100: f86d 2ebf 0d2f 80bf ce12 513f 496f 453f
00000110: 0845 4e3f d45a 163e 2531 48bf efdd 9cbd
00000120: 0b51 113e 7d56 96be 4990 90be 313c 07bf
00000130: f37a b83f 9f51 223f 79b2 353f fb52 d03e
00000140: c8f1 fb3e f266 52be 8d48 4a3f e571 753f
00000150: bfb0 543e 906c 51bf fd1b 883e c65f 8c3f
00000160: 2c4f 323f c824 e23e cc76 173f 6172 9a3e
00000170: be92 3c3f b30d 183f cd8f 35bf 8b19 ed3f
00000180: 7d9e 4a3f 8428 1e3f 9481 5d3f 95b5 123f
00000190: f413 03be c288 243e c916 8c3f b079 b7be
000001a0: c215 a7bf 7b31 54bf caa4 9ebf 934f 973f
000001b0: 2bc8 733f 8be2 a7be 59af abbd f407 0b3c
000001c0: bb20 0f3f 9679 093f 2f9a 573f 8cc5 2c3f
000001d0: 704a 1b3f ab77 763f 4aa5 e53e 5217 563d
000001e0: 00b3 2e3f 10a0 4b3d 3d01 ff3e eef5 32bf
000001f0: 5de3 a23e 59c3 2fbe ea64 a73f 8765 9d3e
00000200: 26e8 0b3f 1f64 093f 5738 2d3f ef1d 343f
00000210: 1a0c 323e c094 ad3f 41d9 05bf 427f 2c3f
00000220: 9ee5 3c3f e7ce 62bf 7f70 12be de37 62bf
00000230: d0c1 343f 4961 7b3f 85b5 dcbf ac07 eb3e
00000240: 63b0 8dbd 2ebf 5d3f 6948 873f c3da f33e
00000250: 0513 443f f6ac e1be ab99 343f a938 853e
00000260: 80f6 583f d7a5 3dbd 96ce c8be 21dc 2c3f
00000270: 4703 2b3f 30d5 1ebe c740 d5be 39b7 ea3e
00000280: 0aac 62bf 055c fbbe 01fe 6e3e fd47 093e
00000290: 3194 383f 6a4d c0be 741b 913f 4bdb afbf
000002a0: ed7f 6b3f f740 af3f a640 4d3f 9426 bc3e
000002b0: e03d 3d3f e2a9 be3f 5d9b c23f 5b7a 673e
000002c0: 2f2d 833f b14c 1a3e 9030 3bbf 7098 ee3e
000002d0: e6f2 303f 9dba 07bf 8872 b6be ad02 be3f
000002e0: e8ff b9be 59e7 f33e 68c8 b7be c7b5 88bc
000002f0: 3c57 ecbc f250 c2be 79f6 23bf d1a7 e1be
00000300: b843 d4bf 32c7 4fbe e93f c33f ba68 bb3f
00000310: c47f 4c3f 2926 a5be c7cf 193f 45a1 16bf
00000320: ec1e 1a3f 763b 1dbe 2b47 00bf e88f 2b3f
00000330: f395 62bf de4f 09bf 20ee 753e c754 31bd
00000340: 9ab4 163e 8bae edbd 3bb8 603e 0b49 66bd
00000350: 4168 0a3e 018c 6a3e 4dd6 23bf 6194 873e
00000360: ce1d 74bd 4c8d 31bf 4c72 9a3e cfcf 003f
00000370: ffaf ba3f b97e 90bf d8d2 0b3f 8883 873c
00000380: 468e d13f d95c 62bf 4aaa 093f c545 2e3f
00000390: 8ab1 e9be f9a7 28bf e8b8 653f 8c55 06bf
000003a0: 2e7b b6be 8a9e 9e3f 380c be3f e17e 2d3f
000003b0: 67b9 3d3c da32 ae3f 1243 9cbf 3bd7 46be
000003c0: 70e5 76be 6698 e2be 0c2c a13f 754b 953e
000003d0: 8e55 43bd 9b01 2a3f 844a bd3f e6ff 963f
000003e0: 53f4 263e 85a7 b33e 66d0 4fbf add9 28bf
000003f0: e552 59bf fa81 c33f ccdf 443f 0c66 acbe
-0.4578246 -0.40420732 0.8423137 0.2604955 0.6844209 -0.17137818 0.11495264 0.95794433
-0.038833126 1.7905895 -0.014648316 -0.61991656 2.1799312 -0.017769128 -1.3207921 0.26970494
0.33664855 -0.3332129 -0.13823862 0.12129819 0.99495834 1.4956851 0.655228 0.74432003
1.1023573 0.50622505 0.721515 0.6165772 0.501684 -0.014587961 1.2179828 1.0647285
0.9228707 0.8774083 0.49309152 0.48703414 0.60860384 1.7089213 1.017962 -0.27139142
0.042733636 -0.26053163 0.96444684 -0.69665456 -0.692283 0.0034181154 -0.6371236 0.22299801
1.3072965 1.1409385 1.0359911 -0.4489705 -0.14725773 -0.5958345 -0.8496761 0.93583333
-0.28857657 0.20484178 0.6046764 -0.20613463 -0.22529528 0.4335326 1.5925558 -0.09478978
-0.6813655 -1.0014359 0.8166932 0.7712293 0.80574083 0.14683086 -0.7819999 -0.07659518
0.14191072 -0.2936286 -0.2823508 -0.5282622 1.4412521 0.63405794 0.7097545 0.4068831
0.49207902 -0.20547083 0.79016954 0.95876914 0.20770548 -0.8180628 0.26583853 1.0966728
0.69652057 0.44168687 0.59165645 0.3016539 0.7366141 0.59395903 -0.7092255 1.852342
0.79148084 0.6178057 0.86525846 0.5730832 -0.1280058 0.16067794 1.0944453 -0.35835028
-1.3053515 -0.82888 -1.239404 1.1821159 0.9522731 -0.32790026 -0.08383054 0.008485783
0.5590932 0.5370115 0.8421964 0.6748893 0.6066046 0.9627635 0.44852668 0.052268334
0.6824188 0.049713194 0.49805632 -0.6990651 0.3181409 -0.17164363 1.3077672 0.30741522
0.54651105 0.536684 0.6766409 0.70358175 0.17387429 1.356102 -0.5228463 0.6738168
0.7378787 -0.8859696 -0.14300726 -0.88366497 0.70608234 0.9819532 -1.7242895 0.4590429
-0.06918409 0.8661984 1.0568973 0.4762784 0.7659152 -0.4407727 0.7054698 0.2601979
0.8475113 -0.046300735 -0.39220113 0.6752339 0.66801876 -0.15511012 -0.41650984 0.45842913
-0.8854376 -0.49093643 0.23339082 0.13406368 0.7210112 -0.37559062 1.1336503 -1.3738798
0.91992074 1.3691701 0.8017677 0.36748183 0.7392254 1.4895594 1.5203663 0.22605269
1.0248164 0.15068318 -0.73120975 0.46600676 0.69120634 -0.53019124 -0.35634255 1.4844567
-0.36328053 0.47637442 -0.35895085 -0.01668824 -0.02885019 -0.3795238 -0.6404796 -0.44073346
-1.6583166 -0.2029083 1.5253879 1.4641335 0.79882455 -0.32255676 0.6008267 -0.5883983
0.60203433 -0.15354714 -0.50108594 0.6701646 -0.88510054 -0.5363749 0.24016619 -0.04329374
0.14717332 -0.11605557 0.21945278 -0.056222003 0.13516332 0.2290497 -0.6399887 0.26480392
-0.059598736 -0.69356227 0.30165327 0.5031709 1.458496 -1.1288673 0.546186 0.016542211
1.6371543 -0.88422924 0.53775465 0.6807521 -0.45643264 -0.65881306 0.8973527 -0.52474284
-0.35640854 1.2392132 1.4847479 0.67771727 0.011579848 1.3609269 -1.2207968 -0.19418041
-0.24110961 -0.44256896 1.2591567 0.29159132 -0.047689013 0.664087 1.4788365 1.1796844
0.1630414 0.35088745 -0.81177366 -0.65957147 -0.8489211 1.5274041 0.76903987 -0.33671606

l1.bias f4 [8]
00000000: ae80 c13f be87 603f 9d78 663f 8b1d 6b3f
00000010: 753d 8a3f 22fd 2a3f da10 153f a374 653f
1.5117395 0.87707126 0.9002779 0.91841954 1.0800005 0.667925 0.5822884 0.896311

l2.weight f4 [8, 8]
00000000: 421b 38be 340a 06be 96bb 4fbe 137c 9abe
00000010: 386a aabe 3f6a 973e 2d84 a4be 3cee 813e
00000020: da1e 603f c345 963d 58cb e2bf edaf c83f
00000030: c6c5 8abe 783a cbbe 2429 0540 5133 1340
00000040: 6023 663e 747b b73f b93e 4dbe 43e8 2040
00000050: 6f6a cf3f ed1b 45bf b3ce 78bf 818b 15bf
00000060: 4565 3b3f 90b9 f33f 4b27 f2bf d01e f23e
00000070: 5352 b23f 6bd6 3c40 a28c f9bd 132e aabf
00000080: d211 9c3f 2b0d c23f 6858 2140 5b03 6abd
00000090: 6f13 d5bf 6b8a 7bbf 02ea 2e40 e4bb ea3e
000000a0: f22c 0b3f 8500 c93f f11a d53e d4d7 10be
000000b0: 1b2c 7cbf 39d6 813f 3277 6abf 475b 373f
000000c0: cb99 1e40 7ed3 4dbf 3f86 94bd f7f4 27bf
000000d0: 0dd5 1f3f 309a 7bbd 4c94 653f 605b 94bf
000000e0: 7f86 ea3f e50c 98bf 956f 883f ae74 5bbf
000000f0: 7fea ac3f 6103 1b3f 90cd cebf 0f5b f13f
-0.17979148 -0.1308983 -0.20286402 -0.30172786 -0.33284163 0.29573247 -0.32132092 0.2537707
0.87547076 0.07337525 -1.7718306 1.5678688 -0.27104014 -0.39693046 2.080636 2.300007
0.22474432 1.433455 -0.20043458 2.5141761 1.6204356 -0.76995736 -0.971904 -0.5841599
0.732014 1.9041004 -1.8918241 0.47289133 1.3931373 2.950587 -0.12185027 -1.3295311
1.2192938 1.5160269 2.521021 -0.057132106 -1.6646556 -0.98258084 2.7330327 0.45846474
0.54365456 1.5703284 0.41622117 -0.14144832 -0.985048 1.01435 -0.9158813 0.71623653
2.4781368 -0.80400836 -0.07252168 -0.6560816 0.62434465 -0.06142634 0.8967941 -1.1590385
1.8322295 -1.1878935 1.0659052 -0.85724914 1.3509063 0.6055203 -1.6156483 1.8855914

l2.bias f4 [8]
00000000: 7365 82be 2d6c 33be d1bb 6f3f 93b8 913e
00000010: 6118 293f 70c6 ecbd 5d5b 6d3f 29c1 5d3f
-0.25468025 -0.17521735 0.9364596 0.2846113 0.66052824 -0.115612864 0.92717534 0.86622864

l3.weight f4 [35, 8]
00000000: 48f6 b7be bfcd 63c0 1127 a0bf 073c a03e
00000010: 14d9 bfbf e5ed fdbd 5c04 213f 923a 203f
00000020: 90ec 2ebe fbeb 8dbf b321 df3d f059 693e
00000030: 2239 50c0 b612 8dc0 4aa6 923f 0fdb 6e3d
00000040: b2f2 c53d 774b 9fbe 2d3e e6bf f641 7dbf
00000050: f3c2 6fbe f867 563f 4341 3cbe 9261 fb3e
00000060: 3c75 003d a603 cabe 7515 33c0 4ffd c43e
00000070: 8d5f ab3d 6c2c 06c0 f628 413f 3c91 57bd
00000080: 850e 663e c894 023f b0f4 103f a6f8 f3bf
00000090: b0ee 0f3e 0632 3fb9 aa1e 42c0 8df8 c9bf
000000a0: 0576 dcbc 095d c2bf 6e80 46c0 f711 32c0
000000b0: 596d 353c 95a1 953e 2122 55bf 2a10 a13f
000000c0: f0ff e13d 4228 d0bc 10f4 1e3e 972f 81c0
000000d0: 9998 8ebf db53 28bf 5796 f1be 6f9c 9a3f
000000e0: c4cf b8bd 107d 97be 7849 323d e9c4 84bd
000000f0: 0bed 4ebf 5e0c 523f 2e02 5ebf e109 f0be
00000100: 234a 97be d33a 33bf 087f 63bf ae11 73bf
00000110: e866 393f ed44 aa3e 57d0 5d3d e9bd a9bf
00000120: c177 603d 9d95 32c0 3038 98bf 2b32 ba3e
00000130: f5ab 183e 3726 313f 17ba 7d3e 4fd0 11bf
00000140: 7d46 ba3d 4ad9 d3be 366e 10bd 0c75 1a3f
00000150: 6a04 28bf 6883 a2bf 1ecb bb3e cc6f d7bf
00000160: 8670 5bbe 6634 ad3e 48bb b3bf d4f9 27c0
00000170: 9394 6d3f 6f2d e03e e68f 21c0 b5cc 25c0
00000180: 9dc3 91be bcff 36c0 c8c3 89c0 ac13 8abf
00000190: dc3c 0e3f e47c 263e 6d14 4d3f c5d3 df3e
000001a0: a9f4 9a3d c835 c03e 5f3e a2bf d48a 663d
000001b0: bb2a 3f3d ab7b d93e 49d1 16c0 7aa7 afbf
000001c0: a2fc 873e 6460 3c3f 38d4 5dbe 6d99 23c0
000001d0: 08d0 973e 6a7f 9fbf 6a11 12be 8bb0 0dc0
000001e0: fbf7 54be ec36 c1be dc84 26bf c1ce a1bf
000001f0: a9af 7cbf 1df2 c9bf 6df9 763f 171e 343f
00000200: 2171 babd 36d7 033f 59d7 11bf b010 73c0
00000210: fd7a f6bb 7c94 58bf 4a88 083e 521c 013d
00000220: af20 10bd fcde d5bf cc16 9a3f f493 7cbf
00000230: f9cf c23d 336f 62c0 24dc 83bf 5178 f4be
00000240: 52ab 443e 1e52 dd3e 89bf 2ebf f602 ba3d
00000250: e10a c9bf 2fb5 2abf cc24 08bf 0755 923e
00000260: b3c4 a3bd 03b0 193f f5d6 09bf 7b0e 77be
00000270: 79e9 b6bd 143c 33c0 0bbc 953d 1706 ffbe
00000280: 819f 5c3d af50 ddbf acd5 fe3d 5caf 543f
00000290: 78aa 1fc0 4494 02bf 3b4a d23e cf14 1abf
000002a0: e1d4 953e d408 adbf eb3a cd3e 090a e4be
000002b0: b1b2 4bbc 0124 a0bf 2488 793f 270b 21bf
000002c0: 676f fb3d 8907 c63d 166f 9f3e f593 73c0
000002d0: 4e34 5a3e 8e8b 20be d8fe 0fbf 44e1 3abe
000002e0: 8f16 c53d a9e5 7ac0 b040 683f a30e 8c3e
000002f0: 43b7 dabf 3980 52c0 c818 14bf 657b 1f3f
00000300: 3151 423e d2c5 b6be 47bc 21c0 c9e0 29c0
00000310: 28d8 473f b1ba ecbf 3f11 8a3f 2334 0fbf
00000320: 9214 123e d19f 53c0 e686 2e3e 40a1 353d
00000330: d369 aebe 86f7 2f3f 29b2 1dc0 1793 ad3e
00000340: 7ef4 023c 3cb5 bfbf 0962 f93e 1ce3 d73e
00000350: f7e1 dfbc b373 463f 81de f8bf fb14 34c0
00000360: 2231 6bbe 8459 59c0 4a5f cc3e ded7 823f
00000370: 145f 0ac0 14c1 8e3f 463d d9bf 8256 ddbf
00000380: 1cfc 013e a757 de3e 1c63 1c3f ba53 63bd
00000390: 594f 2abf 96bb f1bf d326 9fbf 750d 9dbf
000003a0: 6bbc bdbe 141b 42be 74a6 59c0 8581 33c0
000003b0: 847b 063e fa9e 22bf ddf3 013f 80d1 303f
000003c0: 0cab 8f3e c16e 32bf 8a7d 08c0 ebd0 5cc0
000003d0: 0e5c 3e3f 5750 813f 4b62 33bf 26ff 4a3d
000003e0: f8cf 0d3e e22d ddbf 5d0a 27be 6416 7cc0
000003f0: 521b e33e a225 b8bf f851 1a3f e8a2 263f
-0.35930085 -3.5594327 -1.2511922 0.31295797 -1.4988122 -0.123988904 0.62897277 0.6258937
-0.17082429 -1.108764 0.108950995 0.22788215 -3.253487 -4.408534 1.1456997 0.05831438
0.09665431 -0.31112263 -1.7987725 -0.98928773 -0.23414211 0.83752394 -0.1838427 0.49097878
0.031361803 -0.3945591 -2.7981846 0.3847451 0.08367834 -2.0964613 0.75453126 -0.05262874
0.22466476 0.5100827 0.56623363 -1.9060256 0.14055896 -0.00018233815 -3.0331216 -1.5778977
-0.026911745 -1.5184642 -3.1015887 -2.7823465 0.011073434 0.2922484 -0.832552 1.2583058
0.11035144 -0.025409821 0.1552279 -4.0370593 -1.1140319 -0.65752953 -0.47185013 1.207899
-0.09024003 -0.29587603 0.043527097 -0.0648287 -0.8083045 0.8205012 -0.86722076 -0.46882537
-0.2954875 -0.70011634 -0.8886571 -0.9494885 0.7242265 0.3325571 0.054153766 -1.3261081
0.054801706 -2.7903817 -1.1892147 0.363664 0.14909346 0.69198936 0.24778019 -0.5695848
0.09095476 -0.41376716 -0.035261355 0.6033485 -0.65631735 -1.2696352 0.36678404 -1.6830993
-0.21429643 0.3382904 -1.4041529 -2.6246233 0.9280483 0.43784663 -2.5244079 -2.5906193
-0.28469554 -2.8593588 -4.305149 -1.0787253 0.55561614 0.1625858 0.8010929 0.43716255
0.075661965 0.37541032 -1.2675284 0.05628474 0.04667161 0.42477164 -2.3565238 -1.3722985
0.2655993 0.7358458 -0.21662986 -2.5562394 0.29650903 -1.2460759 -0.14264455 -2.2139003
-0.20797722 -0.37737215 -0.6504648 -1.2641221 -0.98705536 -1.5777012 0.96474344 0.70358413
-0.09103609 0.5150026 -0.5696922 -3.7978935 -0.0075219856 -0.8460157 0.1333324 0.03152115
-0.03518742 -1.6708674 1.2038207 -0.9866326 0.09512324 -3.538037 -1.0301557 -0.47748044
0.19205979 0.43226713 -0.6826101 0.09082596 -1.5706445 -0.66682714 -0.5318115 0.28580496
-0.07996502 0.600342 -0.53843623 -0.24126618 -0.0893125 -2.8005419 0.07311257 -0.49809334
0.053863052 -1.7290248 0.124430984 0.8308008 -2.4947796 -0.51007485 0.41072258 -0.60188
0.29263976 -1.3518319 0.40084013 -0.44538906 -0.01243274 -1.2510988 0.9747336 -0.6290764
0.12277108 0.09669406 0.3113944 -3.8059056 0.21309015 -0.15678236 -0.56248236 -0.18249995
0.09623443 -3.9202673 0.90723705 0.27354917 -1.7087177 -3.289076 -0.57850313 0.6229766
0.18976285 -0.356978 -2.5271165 -2.6543448 0.78064203 -1.8494474 1.0786513 -0.5593893
0.1426566 -3.3066294 0.17043647 0.044343233 -0.34065112 0.68737066 -2.463999 0.33901283
0.007992862 -1.4977183 0.48707607 0.42165458 -0.027329428 0.77520293 -1.9442903 -2.8137805
-0.22967961 -3.3960886 0.3991645 1.0222127 -2.162053 1.1152673 -1.6971824 -1.7292025
0.12693828 0.43426248 0.6108873 -0.05549977 -0.66527325 -1.8885372 -1.2433723 -1.2269732
-0.37057814 -0.18955642 -3.4007845 -2.8047802 0.13133055 -0.6352383 0.5076273 0.6906967
0.28060186 -0.6970025 -2.1326623 -3.4502513 0.74359214 1.0102643 -0.7007186 0.049559735
0.13848865 -1.7279627 -0.16312547 -3.9388666 0.4435678 -1.4386485 0.60281324 0.65092325

l3.bias f4 [35]
00000000: 9cf5 453d f13a e73d 03b3 7fbe 7d9e 8e3d
00000010: da98 a13d b28c 923d add6 73bd 995e dabe
00000020: 96f4 cebc 8a8a a2be 9b0d 25bf 9736 8e3e
00000030: 85ee af3e 4650 beba 4e0b 33bf 9315 083e
00000040: 31b1 9bbe 756a 893e 87e9 2bbf abf9 83bd
00000050: 9606 bfbd 3665 97ba cb70 9f3e 4462 1c3f
00000060: 8c46 71bd 53ca 9e3e d675 0abe 6a8c 9f3e
00000070: c862 b6bd 669d cdbe 9f3c 063e 67da f83e
00000080: d4e8 2ebd a6fa 03bf 5235 363e
0.048329934 0.11290539 -0.24970631 0.06963823 0.07890482 0.07155742 -0.059530903 -0.42650297
-0.025263112 -0.31746322 -0.64473885 0.27776024 0.34361663 -0.0014519773 -0.69939125 0.1328948
-0.30408624 0.26839033 -0.6715321 -0.06444105 -0.09327428 -0.0011550549 0.31140742 0.6108744
-0.05890517 0.31013736 -0.13521513 0.31161815 -0.0890556 -0.40159148 0.13109063 0.48604128
-0.04270251 -0.51554334 0.17793778
